.dart_tool/chrome-device/Default/optimization_guide_prediction_model_downloads/16d31d4b-8926-41c4-8a1c-901a4accf4a3/model.tflite (tflite, 410364 bytes, 166 tensors)

context_transformer_0/bottleneck_input/norm/add f4 [32]
0	0x3ccd0c2c	0.025030218
1	0xbb158fb5	-0.0022821252
2	0x3ce9390c	0.028469585
3	0x3bec807a	0.007217464
4	0xbe0f7a5f	-0.14011525
5	0xbe410c1e	-0.18852279
6	0x3bc12ad4	0.005894998
7	0xbc667a56	-0.014067253
8	0xbda68140	-0.08130121
9	0x3e0aeb2d	0.13566275
10	0x3adbe272	0.001677586
11	0xbe59f6e4	-0.21285588
12	0x3b309ec9	0.0026950112
13	0xbd26996e	-0.040673666
14	0xbd5cce50	-0.053907692
15	0xbccc5a46	-0.02494539
16	0x3a846fe5	0.0010104148
17	0x3db0059c	0.0859482
18	0xbd4f42de	-0.05060088
19	0xbcda1ebc	-0.026625983
20	0x3b888928	0.004166741
21	0xbe864e72	-0.26231724
22	0x3d8d5e9b	0.0690281
23	0x3a277077	0.0006387303
24	0x3d415d91	0.047208373
25	0xbd080316	-0.033206068
26	0x3d9e9bae	0.07744537
27	0xbd3238b8	-0.043511122
28	0x3d60d740	0.05489278
29	0x3ad84d8a	0.0016502601
30	0x3d2aa2d0	0.041659176
31	0xbcb73466	-0.022363853

context_transformer_1/bottleneck_input/norm/add f4 [32]
0	0x3e254ff4	0.16143781
1	0xbd8d26d2	-0.0689217
2	0x3d5330b5	0.051560123
3	0x3d301baa	0.042995133
4	0x3e2858c8	0.16440117
5	0x3d9158f1	0.07097042
6	0x3dbbc7bd	0.091689564
7	0xbd55efac	-0.052230522
8	0x3d892923	0.06697299
9	0xbdb09fd8	-0.08624238
10	0x3c0fb3a6	0.008770859
11	0x3e4a571e	0.19759795
12	0x3debab0a	0.115072325
13	0x3e26fe50	0.1630795
14	0x3c4be193	0.012443918
15	0xbdd9b432	-0.10630073
16	0x3b19f734	0.0023493292
17	0x3ced42e0	0.028962553
18	0x3ce9a396	0.028520387
19	0x3e189e97	0.14904247
20	0xbd81069a	-0.06300087
21	0xbe18fecb	-0.14940946
22	0xbd86669f	-0.06562542
23	0xbd0160eb	-0.03158657
24	0xbdcccaaa	-0.099995926
25	0xbcc6b50b	-0.02425625
26	0xbe63f398	-0.22260892
27	0xbdd673bb	-0.104712926
28	0x3e3875d0	0.18013692
29	0xbd4a364f	-0.0493682
30	0xbe1d5ec9	-0.15368189
31	0x3d4640b1	0.04840154

mention_transformer_0/bottleneck_input/norm/add f4 [32]
0	0xbdad3471	-0.08457268
1	0x3e30b63b	0.17257015
2	0xbe24aea8	-0.16082251
3	0x3db3bb24	0.087759286
4	0xbb7485a3	-0.00373111
5	0x3d05bd66	0.032651328
6	0xbdf9cd1c	-0.12197325
7	0xbd789cc0	-0.060696363
8	0xbd068a86	-0.03284695
9	0xbd8e4280	-0.069462776
10	0xbdb25d14	-0.087091595
11	0xbd972142	-0.0737939
12	0xbd616b65	-0.05503406
13	0x3d87090a	0.06593521
14	0xbd4fcb12	-0.050730772
15	0x3c52e4e6	0.012871956
16	0xbd49f46a	-0.049305357
17	0x3d0e1cf9	0.0346956
18	0x3c2762f7	0.010216466
19	0x3e80bbf2	0.2514339
20	0x3deff7b6	0.11717169
21	0xbc111d92	-0.008857148
22	0x3e1c998e	0.15292951
23	0xbe4f5f3b	-0.20251171
24	0xba848cd2	-0.0010112769
25	0xbdf66c87	-0.12032419
26	0xbcea1e4c	-0.0285789
27	0x391cc508	0.00014950719
28	0x3d2e3fe8	0.042541414
29	0x3e52a2f1	0.2056997
30	0x3e1901c4	0.1494208
31	0xbe04839c	-0.1294083

mention_transformer_1/bottleneck_input/norm/add f4 [32]
0	0xbdb61fc4	-0.088927776
1	0x3c50b6ca	0.012738893
2	0xbe13e37a	-0.14442244
3	0xbd6f7088	-0.058456928
4	0xbe2a2393	-0.16615133
5	0x3e33c722	0.17556432
6	0x3e8d05c7	0.2754347
7	0x3e19aa9c	0.15006489
8	0x3e5c9413	0.21540861
9	0x3e89ef6c	0.26940477
10	0xbe4aa09a	-0.19787827
11	0x3df6ef40	0.12057352
12	0xbbcc505e	-0.0062351665
13	0x3e7e8729	0.24856247
14	0xbeda4458	-0.42630267
15	0xbe0fd754	-0.14046985
16	0xbe8f24ef	-0.27957866
17	0xbe281048	-0.16412461
18	0x3e589fa0	0.21154642
19	0xbd92d8e2	-0.07170273
20	0x3c4b6ddc	0.012416329
21	0x3c6b0130	0.014343545
22	0xbdf20dc2	-0.1181903
23	0x3e9411d6	0.28919858
24	0x3e0285a9	0.127463
25	0xbe10906c	-0.14117593
26	0xbd9c48b7	-0.07631057
27	0xbb5e0050	-0.0033874698
28	0x3e451c9a	0.19249192
29	0x3c06e18c	0.0082324855
30	0xbda47aa0	-0.08031201
31	0xbc9f7ca2	-0.01946861

context_transformer_0/attention/value/add;context_transformer_0/attention/value/einsum/Einsum;context_transformer_0/attention/value/add/ReadVariableOp/resource f4 [32]
0	0x3d943a1e	0.072376475
1	0x3d273684	0.040823475
2	0xbd0ed690	-0.03487259
3	0x3da9b280	0.08285999
4	0xbd681466	-0.05666008
5	0x3d85cdf7	0.06533425
6	0xbda65b25	-0.08122853
7	0x3d71d430	0.05904025
8	0x3d257b93	0.040401053
9	0x3da7f328	0.08200675
10	0x3d0a7455	0.03380235
11	0x3d9c367d	0.0762758
12	0x3d321249	0.04347447
13	0xbd195738	-0.037436694
14	0x3da4e88d	0.08052168
15	0xbccfa941	-0.025349261
16	0x3d2bf92b	0.041985672
17	0xbd9800c7	-0.07422023
18	0x3db10aee	0.08644663
19	0x3d6537c1	0.055961374
20	0x3d7027ee	0.05863183
21	0x3d0dd743	0.034629118
22	0xbd203ec2	-0.03912235
23	0x3ca68aac	0.020329796
24	0x3d794371	0.060855333
25	0x3d8741e7	0.06604367
26	0x3d504cb5	0.050854404
27	0xbcdaf348	-0.026727334
28	0xbce78e4b	-0.028266093
29	0xbd1b8b20	-0.037974477
30	0x3d7277dc	0.059196338
31	0x3cc80c67	0.024419976

context_transformer_0/bottleneck_input/norm/mul f4 [32, 32]
0	0x3db78c33	0.08962288
1	0xbc83b925	-0.016079495
2	0xbe375c28	-0.17906249
3	0xbe33874c	-0.1753208
4	0x3e14ef24	0.1454435
5	0x3e8b1f45	0.27172294
6	0x3e5f29d6	0.21793303
7	0x3e1143e4	0.14186054
8	0x3e0c5e5a	0.13707867
9	0xbda079b5	-0.07835714
10	0xbe888315	-0.26662508
11	0x3cfe1024	0.031013556
12	0x3e39c9ff	0.18143462
13	0xbe7045a0	-0.2346406
14	0xbdbda53c	-0.092600316
15	0xbde14a02	-0.11000444
16	0xbc1557a7	-0.009115136
17	0xbe8642ff	-0.2622299
18	0x3b279206	0.0025569214
19	0x3e522ec3	0.2052565
20	0xbd7c0167	-0.061524775
21	0xbe38d958	-0.1805166
22	0xbe2113da	-0.15730229
23	0x3e575664	0.21029049
24	0xbda3c89d	-0.07997248
25	0xbe4c86a0	-0.1997323
26	0xbe982122	-0.29712778
27	0x3dfc7852	0.12327637
28	0x3eaf1902	0.34198767
29	0x3e8813fa	0.2657774
30	0xbea72126	-0.32642478
31	0xbe07eb0f	-0.13273261
32	0x3e6d9b65	0.2320381
33	0x3e9fea03	0.31233224
34	0x3e8f9b09	0.2804797
35	0x3e5c07e2	0.21487382
36	0x3ded7092	0.11593737
37	0xbe8323d5	-0.25613275
38	0xbe9aa242	-0.30201918
39	0x3e7e9724	0.24862343
40	0xbcdade5e	-0.026717361
41	0xbd89655c	-0.06708786
42	0xbeb68e8b	-0.35655627
43	0xbeb865fe	-0.36015314
44	0xbe931306	-0.2872545
45	0x3eb32cc8	0.34995103
46	0x3e8357e4	0.25652993
47	0xbeba5e73	-0.36400184
48	0x3e05703f	0.130311
49	0xbe9eba30	-0.31001425
50	0x3d47ca00	0.048776627
51	0xbe0e1fd0	-0.13879323
52	0x3d7b0f75	0.061294038
53	0x3ed89ee5	0.42308727
54	0x3e182e89	0.14861502
55	0x3e329834	0.17440873
56	0xbe821e56	-0.2541377
57	0xbed5b4af	-0.41739413
58	0xbe46e755	-0.19424184
59	0x3d9f7987	0.077868514
60	0xbe1f3768	-0.1554848
61	0xbee4c527	-0.44681665
62	0xbe586875	-0.21133597
63	0x3e973c14	0.29538023
64	0xbea3d7b1	-0.32000497
65	0xbda517a8	-0.08061153
66	0x3eb4f04b	0.3533958
67	0xbd717152	-0.05894596
68	0xbdc572f2	-0.09641065
69	0x3eeae8c7	0.4588072
70	0x3ecbf6f5	0.3983685
71	0xbf1aa407	-0.60406536
72	0xbd8531e5	-0.06503657
73	0x3e6a912e	0.22906944
74	0xbdc1baac	-0.09459433
75	0xbe33e42d	-0.17567511
76	0xbdab930f	-0.083776586
77	0x3f12fa98	0.57413626
78	0x3e97c27b	0.29640564
79	0x3ccb94bd	0.024851197
80	0xbd8abd78	-0.067744195
81	0xbe9266ad	-0.2859396
82	0x3ddd9adc	0.10820553
83	0xbdf82798	-0.12116927
84	0xbea6655f	-0.32499215
85	0xbde45bb6	-0.11150305
86	0x3e4c6f5b	0.19964354
87	0xbe471612	-0.19442013
88	0x3e04043c	0.1289224
89	0xbdf5a130	-0.11993635
90	0x3e97173f	0.29509923
91	0xbdfff12d	-0.124971725
92	0x3d5e4287	0.054262664
93	0xbed1f809	-0.41009548
94	0x3e288bc8	0.16459572
95	0xbeb79d79	-0.3586233
96	0xbdb9a10e	-0.09063922
97	0xbeef879a	-0.46783143
98	0x3c99fc47	0.018797053
99	0x3c673633	0.014112043
100	0xbd6aac88	-0.057293445
101	0x3e3ab86c	0.18234414
102	0x3ce49e28	0.027907446
103	0x3e694d1e	0.22783324
104	0x3e031df8	0.12804401
105	0xb8fcee53	-0.00012060688
106	0x3e833b57	0.2563121
107	0x3e20603c	0.1566171
108	0x3e70f93e	0.23532578
109	0xbcb62ca6	-0.022238087
110	0x3c89f467	0.016840173
111	0x3bf583a7	0.007492501
112	0xbdfcfac4	-0.12352517
113	0xbc7eb167	-0.015545226
114	0xbe263bdc	-0.16233772
115	0x3f369963	0.713278
116	0x3e12efbf	0.14349268
117	0xbe56dac3	-0.20981888
118	0xbe0c4e35	-0.13701709
119	0x3dc4ae48	0.09603554
120	0x3e3d2131	0.18469693
121	0xbe310b9a	-0.17289582
122	0xbd2c5ce4	-0.042080775
123	0xbe161d2c	-0.14659566
124	0x3d2fb175	0.042893846
125	0x3ea40c20	0.320405
126	0xbaa5f9bb	-0.0012662926
127	0xbd2851d1	-0.04109365
128	0xbd654328	-0.05597225
129	0x3e6d6114	0.23181564
130	0xbeee075e	-0.46489996
131	0x3e546c6a	0.20744482
132	0xbe933b08	-0.28755975
133	0x3d805c5e	0.06267618
134	0xbe486fda	-0.19573918
135	0x3eb14c68	0.34628606
136	0x3e4104eb	0.18849532
137	0xbd683194	-0.056687906
138	0x3dfcd239	0.12344784
139	0x3f3b110e	0.730729
140	0xbf0d3f94	-0.5517514
141	0xbe955329	-0.2916501
142	0xbe90569d	-0.2819108
143	0x3f01a9fe	0.5065001
144	0xbea5a502	-0.32352453
145	0x3ed3005a	0.41211206
146	0xbd52039d	-0.051272977
147	0xbe4692c0	-0.19391918
148	0xbeaf5f36	-0.34252328
149	0xbed8e3ee	-0.42361397
150	0xbea31c5f	-0.31857583
151	0xbe863765	-0.26214138
152	0x3d60879c	0.054816827
153	0x3cff80c8	0.031189337
154	0xbe54069d	-0.20705648
155	0x3e23a2fb	0.15980141
156	0xbdb32ff7	-0.08749383
157	0x3eb1c48d	0.3472027
158	0xbebd8dca	-0.3702224
159	0x3e8b87b7	0.2725198
160	0x3df6609a	0.12030144
161	0xbe4e58bc	-0.20151037
162	0xbe19a15b	-0.15002958
163	0xbdd4b7c6	-0.103866145
164	0xbe395374	-0.18098241
165	0xbb415fcf	-0.002950657
166	0xbe1d898a	-0.15384498
167	0x3d910f15	0.07082955
168	0x3d4e981f	0.050438043
169	0xbd871269	-0.06595308
170	0x3ea41388	0.3204615
171	0xbb594e70	-0.0033158325
172	0xbde4f0bf	-0.11178731
173	0x3e9d866b	0.30766615
174	0xbdc51cd3	-0.096246384
175	0xbaae4e5d	-0.00132985
176	0xbcb25206	-0.021767627
177	0x3da8da15	0.08244721
178	0x3cbfeda0	0.023428738
179	0x3d926f6b	0.071501575
180	0xbd42e333	-0.047579955
181	0xbdbc0f94	-0.09182659
182	0xbccb7e5e	-0.02484053
183	0xbd2c7463	-0.042103183
184	0xbda9bcbe	-0.08287953
185	0x3e0f5f1c	0.14001125
186	0xbe3d56c6	-0.18490133
187	0x3d8622e2	0.06549622
188	0x3d86ba28	0.06578475
189	0x3d59f9a4	0.05321659
190	0x3c3a20b7	0.011360339
191	0x3e08f17b	0.13373367
192	0x3d508949	0.050912175
193	0x3dd0e33a	0.1019959
194	0xbd98e0fe	-0.07464789
195	0x3dd26595	0.102732815
196	0xbe47f669	-0.19527592
197	0xbd57d9fa	-0.052698113
198	0xbbf2e430	-0.007412456
199	0x3dc305d7	0.09522598
200	0x3d8f6252	0.07001175
201	0xbc024177	-0.007950178
202	0xbc4a789c	-0.012357857
203	0x3de3da6e	0.111256465
204	0xbe46e874	-0.19424611
205	0xbe4ef4f5	-0.20210631
206	0x3dc4233a	0.095770314
207	0x3e007ab3	0.12546806
208	0xbc6039f7	-0.013685695
209	0x3e470155	0.19434102
210	0xbd529387	-0.051410224
211	0xbdba9ff8	-0.09112543
212	0xbe27b7c4	-0.16378695
213	0x3d258756	0.04041227
214	0x3db8e5c1	0.09028197
215	0xbe888b5f	-0.26668832
216	0xbe022031	-0.12707593
217	0x3d5dae3e	0.05412125
218	0x3d53bb02	0.051692016
219	0xbd5fb1e1	-0.054612998
220	0xbda216cf	-0.07914507
221	0x3ce716b1	0.028209062
222	0xbe61032d	-0.21973868
223	0x3df72733	0.120680235
224	0xbc64411a	-0.013931537
225	0x3c848f2c	0.01618155
226	0xbd08dc4e	-0.033413224
227	0x3d1ebc49	0.03875378
228	0xbd38e471	-0.045139734
229	0x3e75ba00	0.23996735
230	0xbbe13c77	-0.006873663
231	0xbe4fb3b0	-0.20283389
232	0x3d3c7583	0.046010505
233	0x3d8b61ef	0.06805789
234	0xbd901ac8	-0.07036358
235	0x3e827488	0.2547953
236	0xbe0773e2	-0.132278
237	0x3eb458f1	0.35224107
238	0x3e169895	0.14706643
239	0x3e4d5300	0.20051193
240	0x3c0806a2	0.008302363
241	0x3d632ac1	0.055460695
242	0xbdcc4f80	-0.09976101
243	0xbdae3bcc	-0.08507499
244	0xbe8cdffb	-0.27514634
245	0xbeaffcd1	-0.3437257
246	0xbd9b1f39	-0.075743146
247	0xbda45fde	-0.08026098
248	0x3d198b78	0.037486523
249	0x3e00ebdf	0.12589978
250	0x3d2cf538	0.042226046
251	0x3e7ecae3	0.24882083
252	0x3e217f33	0.15771179
253	0x3e9753c0	0.29556084
254	0xbe3e2127	-0.18567334
255	0xbe77758f	-0.24165939

context_transformer_0/kq_shared_bottleneck/norm/mul;context_transformer_0/kq_shared_bottleneck/norm/add;context_transformer_0/attention/key/einsum/Einsum;context_transformer_0/attention/key/add;context_transformer_0/attention/value/einsum/Einsum;context_transformer_0/attention/key/add/ReadVariableOp/resource f4 [32]
0	0xbe040c1c	-0.12895244
1	0xbe102535	-0.14076693
2	0x3e26ce8b	0.16289727
3	0x3e2babf4	0.16764814
4	0x3dee685d	0.116409995
5	0xbe0ea0ce	-0.1392853
6	0x3da5a612	0.08088316
7	0xbdc110d2	-0.09427036
8	0x3d416d14	0.047223166
9	0xbe1d0c06	-0.15336618
10	0xbd6b7ddd	-0.05749308
11	0xbe56ff25	-0.20995767
12	0x3dd7dc1b	0.10540029
13	0xbd7075a1	-0.05870593
14	0xbdfedd9c	-0.124446124
15	0xbe8ceed0	-0.2752595
16	0xbcce7a72	-0.02520487
17	0xbd253a7b	-0.040338974
18	0xbd7cf1cd	-0.061754037
19	0x3b68e810	0.003553871
20	0x3d9aedc1	0.07564879
21	0xbcd0efd7	-0.02550499
22	0x3c9255dd	0.017863208
23	0xbc09bc15	-0.008406659
24	0xbda12cd8	-0.078698814
25	0xbdbbafae	-0.091643676
26	0x3d2b946d	0.041889597
27	0xbd8a3163	-0.06747701
28	0x3cba7f4f	0.022765784
29	0x3d9ff173	0.07809725
30	0x3da3ade3	0.07992151
31	0xbda03bda	-0.07823916

context_transformer_0/kq_shared_bottleneck/norm/mul;context_transformer_0/kq_shared_bottleneck/norm/add;context_transformer_0/attention/key/einsum/Einsum;context_transformer_0/attention/key/add;context_transformer_0/attention/value/einsum/Einsum;context_transformer_0/attention/key/add/ReadVariableOp/resource1 f4 [32, 32]
0	0xbe7aecaa	-0.24504343
1	0x3dcb20ae	0.099183425
2	0x3dc7996a	0.09746058
3	0xbd28a21e	-0.041170232
4	0xbd91f130	-0.07126081
5	0x3e3916f7	0.18075167
6	0xbd265ad6	-0.04061397
7	0xbe44d1a3	-0.19220595
8	0x3d9bc870	0.0760659
9	0xbe3fcbe1	-0.18730117
10	0xbca6d016	-0.020362895
11	0x3dbe0695	0.09278599
12	0xbe36a6bf	-0.17837046
13	0xbe55020c	-0.20801562
14	0xbdc05731	-0.093916304
15	0xbbc79bf6	-0.00609159
16	0xbe5999ce	-0.21250078
17	0xbdfa2d84	-0.12215713
18	0x3e31d39b	0.17365877
19	0x3cbd0807	0.023075117
20	0xbd94c582	-0.07264234
21	0xbe078c94	-0.1323722
22	0xbde623a5	-0.112372674
23	0xbe19ccee	-0.1501958
24	0xbe3e16fc	-0.18563455
25	0xbe3af297	-0.18256603
26	0xbe57e8d7	-0.21084915
27	0x3e07c9bc	0.1326055
28	0x3dbfd6e1	0.09367157
29	0xbe3c7c2d	-0.18406744
30	0x3d4ccdcf	0.050000962
31	0x3db637ae	0.08897339
32	0xbe6c88b0	-0.23099017
33	0x3d8595d1	0.06522716
34	0x3db94fef	0.09048449
35	0xbd8fcc2c	-0.070213646
36	0xbd667988	-0.056268245
37	0x3e5ea454	0.21742374
38	0xbd28e830	-0.041237056
39	0xbe3e9fcb	-0.18615644
40	0x3d79a1fd	0.0609455
41	0xbe58d1c8	-0.21173775
42	0xbcc0b663	-0.023524469
43	0x3ddde9c6	0.10835604
44	0xbe565b31	-0.20933224
45	0xbe6ac59b	-0.22926943
46	0xbddcfc45	-0.10790304
47	0xbba683e6	-0.0050816415
48	0xbe4c0edb	-0.19927542
49	0xbe3045a3	-0.17214064
50	0x3e51ff48	0.20507538
51	0x3c92ae41	0.017905356
52	0xbdbc2ee7	-0.091886334
53	0xbe1ef955	-0.155248
54	0xbe17e90f	-0.14834999
55	0xbe2c4861	-0.16824485
56	0xbe46e323	-0.19422583
57	0xbe3a88fc	-0.18216318
58	0xbe5455be	-0.20735833
59	0x3e0498c1	0.12948896
60	0x3de3e77b	0.11128136
61	0xbe4b841a	-0.19874611
62	0x3d8ff52e	0.07029186
63	0x3dc9ee7a	0.09859939
64	0x3e73f8cf	0.23825382
65	0xbdd3c47e	-0.10340212
66	0xbd91e2c0	-0.07123327
67	0x3d5d97bc	0.054099783
68	0x3d8b2818	0.06794757
69	0xbe9ff5f5	-0.31242338
70	0x3d1380b9	0.03601143
71	0x3e2aaf27	0.16668378
72	0xbd97c600	-0.074108124
73	0x3e65cb9a	0.22440949
74	0x3d06b22f	0.032884773
75	0xbdd82a31	-0.10554922
76	0x3e4b6178	0.198614
77	0x3e6e33df	0.23261975
78	0x3dac66ad	0.08418021
79	0x3bbf9d5d	0.0058476166
80	0x3e5e15b1	0.21687962
81	0x3dbd1f78	0.09234518
82	0xbe2a0ba9	-0.1660601
83	0xbd8ea2a6	-0.069646165
84	0x3ddcae53	0.10775437
85	0x3e1844e7	0.14870034
86	0x3e062773	0.13100986
87	0x3dca4a20	0.098774195
88	0x3e3e7cc1	0.18602277
89	0x3e3b685a	0.18301526
90	0x3e4ab40c	0.19795245
91	0xbdf8f3e3	-0.12155893
92	0xbd97cdfb	-0.074123345
93	0x3e342e7c	0.17595857
94	0xbd0f1fb4	-0.034942344
95	0xbdf17610	-0.11790097
96	0x3e4ce2a6	0.20008335
97	0xbdc3da7d	-0.09563158
98	0xbde2e3cb	-0.11078604
99	0x3d947b97	0.072501354
100	0x3da162b3	0.078801535
101	0xbe8bb876	-0.2728917
102	0x3d60aa36	0.054849826
103	0x3e350238	0.17676628
104	0xbda9d927	-0.08293372
105	0x3e3eaf71	0.18621613
106	0x3d4559e8	0.048181444
107	0xbdd60bb0	-0.10451448
108	0x3e4c8560	0.19972754
109	0x3e86860d	0.26274148
110	0x3de0bdbe	0.109736905
111	0xbc6e26c7	-0.014535612
112	0x3e4b25a8	0.19838583
113	0x3e197ca0	0.14988947
114	0xbe49b6d1	-0.19698645
115	0xbd412ee6	-0.047163866
116	0x3e03f696	0.12887034
117	0x3e2749ab	0.16336696
118	0x3e20f9bc	0.15720266
119	0x3e23a852	0.15982178
120	0x3e570d08	0.21001065
121	0x3e3d6ab5	0.18497737
122	0x3e6cc7af	0.23123048
123	0xbe08bb5a	-0.13352719
124	0xbdf0bea2	-0.1175511
125	0x3e4d402a	0.20044008
126	0xbd9f088e	-0.077653036
127	0xbdf72a62	-0.12068631
128	0x3e43ab33	0.19108276
129	0xbd9416b9	-0.072308965
130	0xbdeb6e8b	-0.11495694
131	0x3d851b5f	0.06499361
132	0x3d3773b3	0.044788074
133	0xbe832220	-0.25611973
134	0x3c2bfbbf	0.010497033
135	0x3e28b91f	0.16476868
136	0xbd4b7cae	-0.04967945
137	0x3e2bd003	0.16778569
138	0xbc2a2443	-0.010384622
139	0xbd607f44	-0.05480887
140	0x3e22f4ae	0.1591365
141	0x3e569d98	0.20958555
142	0x3d602b9f	0.0547291
143	0x3c125c09	0.008933076
144	0x3e3d6dd0	0.18498921
145	0x3d708d2c	0.058728382
146	0xbe3f6d76	-0.186941
147	0xbc7558c1	-0.014974774
148	0x3d5f6ac1	0.054545168
149	0x3dd494e6	0.103799626
150	0x3e049f65	0.12951429
151	0x3e17811c	0.14795345
152	0x3e3d880d	0.1850893
153	0x3e2d6905	0.16934593
154	0x3e34c65c	0.17653793
155	0xbdb6dd6b	-0.08928951
156	0xbdaee9eb	-0.0854071
157	0x3e0b77d4	0.1361993
158	0xbcee0790	-0.02905634
159	0xbde4e146	-0.1117578
160	0xbe65bacb	-0.22434537
161	0x3dc1cfa7	0.09463435
162	0x3dd35069	0.103180714
163	0xbd5d0bec	-0.053966448
164	0xbd9d6c1c	-0.07686636
165	0x3e9485d6	0.2900836
166	0xbcb17123	-0.021660393
167	0xbe01c8b3	-0.12674217
168	0x3d2bedba	0.04197476
169	0xbe5bed6f	-0.21477292
170	0xbca4fd6a	-0.020140368
171	0x3dac52be	0.08414219
172	0xbe4493c0	-0.19196987
173	0xbe51b84f	-0.20480464
174	0xbdbe4df6	-0.092922136
175	0xbc054b85	-0.008135681
176	0xbe3eeead	-0.18645735
177	0xbdb76c42	-0.089561954
178	0x3e3f2d80	0.186697
179	0x3d786a74	0.060648397
180	0xbda6744a	-0.08127649
181	0xbe1f8010	-0.15576196
182	0xbdf2fe23	-0.11864879
183	0xbdcbdfbd	-0.09954784
184	0xbe3e8666	-0.18605956
185	0xbe426399	-0.18983306
186	0xbe25a2dd	-0.16175409
187	0x3de8f15c	0.11374161
188	0x3dbe8a12	0.093036786
189	0xbe38e52c	-0.18056172
190	0x3d4282f2	0.04748816
191	0x3dfef962	0.1244991
192	0x3e739b23	0.23789649
193	0xbd8c7398	-0.06857985
194	0xbd057b2d	-0.032588173
195	0xbe4d50a1	-0.20050289
196	0xbd76a7f1	-0.060218755
197	0xbf41596a	-0.7552706
198	0xbc9f07ef	-0.019412963
199	0xbeab1ba0	-0.33419514
200	0x3dd1f820	0.10252404
201	0x3e4ee3e5	0.20204122
202	0xbcb8f22c	-0.022576414
203	0xbd831ae5	-0.06401614
204	0xbd7e6d6c	-0.06211607
205	0x3ccea33e	0.025224324
206	0xbe0300f1	-0.12793328
207	0x3ca98a52	0.02069584
208	0x3d63174a	0.055442132
209	0xbed2a3ba	-0.41140538
210	0xbe6d1f24	-0.2315641
211	0xbec60747	-0.38677427
212	0x3e0b8e72	0.13628557
213	0xbd36e390	-0.044650614
214	0xbc90f5bd	-0.017695302
215	0xbe868fd4	-0.26281607
216	0xbd04e3f0	-0.03244394
217	0x3d6d120b	0.057878535
218	0x3ca19024	0.019722052
219	0xbc009ab8	-0.007849388
220	0x3ded4826	0.11586027
221	0xbe19c6c0	-0.15017223
222	0x3e434c85	0.19072159
223	0xbd5f4b17	-0.05451497
224	0xbe416bb2	-0.18888739
225	0x3d5f21c5	0.054475565
226	0x3e2ede23	0.17076926
227	0x3e2e9865	0.17050321
228	0x3d7dba2d	0.06194513
229	0x3f24b9cf	0.6434602
230	0x3d12d870	0.035850942
231	0x3dff6a37	0.12471431
232	0xbdffdddc	-0.12493488
233	0xbde555e5	-0.11198024
234	0x3ca31035	0.019905189
235	0x3ca82793	0.020526683
236	0xbc9c617e	-0.019089457
237	0xbd367a34	-0.044550136
238	0x3da41465	0.080117024
239	0xbc5a42f0	-0.013321623
240	0xbdd89943	-0.10576107
241	0x3ea1d946	0.3161108
242	0x3e25330a	0.16132751
243	0x3e8d840c	0.27639806
244	0xbd7bc3df	-0.061466094
245	0xbd400db8	-0.046888083
246	0x3c304c5e	0.010760395
247	0x3e15ec26	0.14640865
248	0x3c7ba853	0.015359956
249	0xbd9b2249	-0.07574899
250	0xbd65e8f2	-0.056130357
251	0x3d3ff85b	0.04686771
252	0xbd4c28d8	-0.04984364
253	0x3d951243	0.07278874
254	0xbe042f7b	-0.12908737
255	0x3d414391	0.047183577

context_transformer_0/kq_shared_bottleneck/norm/mul;context_transformer_0/kq_shared_bottleneck/norm/add;context_transformer_0/attention/query/einsum/Einsum;context_transformer_0/attention/query/add;context_transformer_0/attention/value/einsum/Einsum;context_transformer_0/attention/query/add/ReadVariableOp/resource;context_transformer_0/attention/Mul;context_transformer_0/attention/Mul/y f4 [32]
0	0xbdd76d40	-0.10518885
1	0xbde1933d	-0.110144116
2	0x3db339d1	0.08751262
3	0x3dddd7f9	0.10832209
4	0x3dacb39b	0.084326945
5	0xbdae4dcc	-0.08510932
6	0xbe74428c	-0.2385351
7	0x3dd9dce7	0.10637837
8	0xbc288cff	-0.010287522
9	0x3d6c59ac	0.057702705
10	0x3c849cd5	0.016188065
11	0x3de14139	0.10998768
12	0xbd1e9a47	-0.03872135
13	0x3ca61b12	0.02027658
14	0x3d900505	0.070322074
15	0x3e21ebde	0.15812632
16	0xbca9a85c	-0.020710163
17	0xbd519975	-0.05117174
18	0xbdf4c2e9	-0.11951239
19	0x3c569720	0.013097554
20	0x3dcc3b46	0.09972243
21	0xbcf0d469	-0.02939816
22	0x3d21ef41	0.03953481
23	0xbbef8f30	-0.0073107705
24	0x3e12222e	0.14270851
25	0xbe37ce97	-0.17949902
26	0x3dc2dec3	0.09515145
27	0xbe106fbd	-0.14105125
28	0x3da73930	0.081652045
29	0xbe147317	-0.14497028
30	0x3e2276e0	0.1586566
31	0xbe0e4e6b	-0.13897102

context_transformer_0/kq_shared_bottleneck/norm/mul;context_transformer_0/kq_shared_bottleneck/norm/add;context_transformer_0/attention/query/einsum/Einsum;context_transformer_0/attention/query/add;context_transformer_0/attention/value/einsum/Einsum;context_transformer_0/attention/query/add/ReadVariableOp/resource;context_transformer_0/attention/Mul;context_transformer_0/attention/Mul/y1 f4 [32, 32]
0	0x3dbbc3fd	0.09168241
1	0xbad9f70e	-0.0016629414
2	0xbe17ef47	-0.14837371
3	0xbcb6e466	-0.022325706
4	0x3c07c6e0	0.008287162
5	0x3c0e8687	0.008699066
6	0xbbc8e1e4	-0.006130444
7	0xbb86e8c7	-0.0041171047
8	0x3bc9e461	0.006161258
9	0x3db0102a	0.08596833
10	0x3ad601f0	0.0016327482
11	0xbc92db4f	-0.01792684
12	0x3c768011	0.015045182
13	0x3d859838	0.06523174
14	0x3c43eb38	0.011957936
15	0x3c61eeb7	0.013789824
16	0xbb93b5f6	-0.0045077754
17	0xbd189e18	-0.037260145
18	0xbda5bf9a	-0.08093186
19	0x3c469ad9	0.0121218795
20	0x3c5f694b	0.013635944
21	0xba017db9	-0.00049396936
22	0x3d1a6269	0.037691507
23	0xbb8ffd25	-0.004394191
24	0x3d8beaa3	0.06831863
25	0x3d60139c	0.0547062
26	0x3ad7a5cd	0.0016452611
27	0xbbca43cc	-0.006172633
28	0xbae78a23	-0.0017665069
29	0xbc3589f7	-0.011080257
30	0xbc03013e	-0.007995902
31	0xbcce0495	-0.02514867
32	0x3dbea55f	0.09308886
33	0xbc0e6cc0	-0.00869292
34	0xbe19f7cf	-0.15035938
35	0xbcbfda58	-0.023419544
36	0x3b2b72c0	0.0026160926
37	0xb9d25bcf	-0.00040122724
38	0xbc10a0d9	-0.008827412
39	0xbc869067	-0.016426278
40	0xbb9e9074	-0.0048389975
41	0x3daccc5f	0.08437418
42	0x3c9594bc	0.018259399
43	0xbc9835c4	-0.018580325
44	0x3c8a7afc	0.016904347
45	0x3d844e64	0.06460264
46	0x3c30d8cf	0.010793879
47	0x3c674f3a	0.01411801
48	0x3a650913	0.0008737009
49	0xbd468e19	-0.04847536
50	0xbdb18f58	-0.08669919
51	0x3c19d6a0	0.0093895495
52	0x3cc6ae31	0.024252983
53	0xbc4336d9	-0.011914932
54	0x3d2e5021	0.042556886
55	0x3b9a72a5	0.0047133737
56	0x3d90c548	0.070688784
57	0x3d6c2a77	0.057657685
58	0x3c304c51	0.010760383
59	0x3a17a3f9	0.00057846267
60	0x3c380022	0.0112305
61	0x3aef3520	0.0018250085
62	0xbc3d3566	-0.011548376
63	0xbca5d0e0	-0.0202412
64	0xbdc78770	-0.097426295
65	0x3c4c3271	0.012463198
66	0x3e2e3f8b	0.17016427
67	0x3cfbf268	0.030755237
68	0xbbb62799	-0.0055589196
69	0x3ce341c3	0.027741319
70	0xbb9fbf07	-0.004875067
71	0x3ad0b666	0.00159235
72	0x3b5ce23e	0.0033704187
73	0xbdac2234	-0.08404961
74	0xbc9ca7a7	-0.019122912
75	0x3d0d73d3	0.034534287
76	0xbd025416	-0.03181847
77	0xbd5de66a	-0.054174818
78	0xbc23abfa	-0.009989733
79	0xbc1f0065	-0.009704684
80	0xbb69054d	-0.0035556138
81	0x3d1e42fc	0.0386381
82	0x3d993c69	0.074822254
83	0xba40da11	-0.0007356713
84	0xbc3577fd	-0.011075971
85	0x39b567d5	0.0003460037
86	0xbd51505d	-0.05110203
87	0xbbba1dba	-0.005679813
88	0xbd8939ca	-0.067004755
89	0xbd24f7d0	-0.040275395
90	0xbc7ab1f8	-0.01530122
91	0x3c7aed5e	0.015315382
92	0x3bc50828	0.006012935
93	0x3ba2e632	0.004971289
94	0x3b85a5be	0.004078596
95	0x3ccc4ec3	0.0249399
96	0xbdbd90db	-0.092561446
97	0x3b337f1d	0.0027388998
98	0x3e2f8ad9	0.1714281
99	0x3cdbf0e7	0.02684827
100	0xbb1f82ce	-0.002433944
101	0x3bdb7baa	0.0066980915
102	0xbc01d14b	-0.0079234345
103	0x3c951e17	0.018202825
104	0x3c07fa81	0.008299471
105	0xbdcb69cd	-0.09932289
106	0xbc3b3e3b	-0.011428411
107	0x3cef5ca0	0.029218972
108	0xbd0cadf9	-0.0343456
109	0xbd8b34a2	-0.06797148
110	0xbbebc39a	-0.0071949484
111	0xbc536755	-0.012903054
112	0xbb65462e	-0.0034984457
113	0x3d3bdc84	0.045864597
114	0x3db5bb40	0.08873606
115	0xbb9347b4	-0.0044946317
116	0xbc7078ba	-0.014677221
117	0x3c06b9af	0.008222981
118	0xbd49e22c	-0.04928796
119	0x3b907ffe	0.004409789
120	0xbd9366d4	-0.07197347
121	0xbd6e5946	-0.058190607
122	0xbc3611b7	-0.011112622
123	0x3c5838be	0.013197122
124	0x3ac0a340	0.001469709
125	0xbb42bedd	-0.0029715814
126	0x3c286ddb	0.010280098
127	0x3ca9bdf3	0.020720458
128	0xbdb02462	-0.086006895
129	0x3b68c782	0.0035519307
130	0x3e1e0288	0.15430653
131	0x3cc2fc1e	0.02380186
132	0xbb6f18b6	-0.0036483235
133	0x3c99e62d	0.018786514
134	0x3b22ea91	0.002485905
135	0x3bbc31c5	0.0057432377
136	0x3bc0c641	0.0058830087
137	0xbd8735e6	-0.06602077
138	0xbc4a5b2d	-0.01235084
139	0x3d02e04a	0.03195218
140	0xbcc0349f	-0.023462592
141	0xbd499ceb	-0.049221914
142	0xbbf788df	-0.007554158
143	0xbbb8631d	-0.0056270496
144	0x3be49b28	0.006976504
145	0x3d05dff4	0.03268428
146	0x3d89203c	0.06695601
147	0xbbc9db5c	-0.006160183
148	0xbbcb2ed2	-0.00620065
149	0xbbe606fa	-0.0070198746
150	0xbd43313f	-0.047654387
151	0x3bf2a60f	0.0074050496
152	0xbd59bf1a	-0.053160764
153	0xbd4500c6	-0.04809644
154	0xbc1db1cf	-0.009624912
155	0x3b6047d3	0.0034222498
156	0x3bd09f78	0.0063666664
157	0x3ba63d25	0.005073207
158	0x3c51a4ea	0.012795666
159	0x3c84b3ac	0.016198955
160	0x3dc854f7	0.09781831
161	0xbca31ffa	-0.019912709
162	0xbe287f6a	-0.16454855
163	0xbc98a00a	-0.018631
164	0x3b491f06	0.0030688657
165	0xbc495b9b	-0.012289907
166	0x3bb604f8	0.0055547915
167	0x3ab4e792	0.0013801923
168	0xbb47b70a	-0.003047409
169	0x3d9f1e31	0.077694304
170	0x3baccc66	0.0052733896
171	0xbcf1a6ad	-0.029498423
172	0x3cf80a9e	0.0302785
173	0x3d3fd733	0.04683609
174	0x3c08c8e9	0.008348682
175	0xbbc8f155	-0.0061322846
176	0x3baf9625	0.005358475
177	0xbd373689	-0.044729743
178	0xbda04ad5	-0.07826773
179	0x3c1bb820	0.009504348
180	0x3c8f8a24	0.017521925
181	0x3c83fae0	0.016110837
182	0x3d14c3b1	0.03631944
183	0x3c1ae002	0.009452822
184	0x3d7f8513	0.06238277
185	0x3d33d54b	0.043904584
186	0x3c7f52af	0.015583678
187	0xbc21d25e	-0.009876816
188	0xbb48ffd7	-0.003067007
189	0x3bcb7c35	0.006209875
190	0xbc07e5e4	-0.008294556
191	0xbcb92a9f	-0.022603331
192	0xbd6da490	-0.058018267
193	0x3df5c590	0.12000573
194	0x3e227e29	0.15868439
195	0x3c6a620d	0.014305604
196	0xbd2f6827	-0.042823937
197	0x3e8ed530	0.27897024
198	0xbe1222df	-0.14271115
199	0xbe0fda61	-0.14048149
200	0x3c3da332	0.011574553
201	0xbcecbb99	-0.028898047
202	0xbc7b855d	-0.0153516205
203	0x3d9ee2b2	0.077580824
204	0xbd55a6c7	-0.052161004
205	0x3bafa2cd	0.0053599835
206	0x3e1b94f8	0.15193546
207	0xbd2ce96d	-0.0422148
208	0xbdadab1a	-0.08479901
209	0xbc89d186	-0.016823541
210	0xbca513ea	-0.020151097
211	0xbdfd59b1	-0.12370623
212	0xbdcfa600	-0.10139084
213	0xbda6d140	-0.0814538
214	0xbd1c38be	-0.03814005
215	0x3aed8474	0.0018121139
216	0xbae9e903	-0.0017845932
217	0xbca35c8a	-0.019941587
218	0xbd8dab33	-0.06917419
219	0x3dae0ea0	0.08498883
220	0x3ddadeeb	0.106870495
221	0xbb300ba8	-0.0026862416
222	0x3c1caffd	0.009563443
223	0x3d0985fb	0.03357504
224	0x3d1b4576	0.03790804
225	0xbd4be890	-0.049782336
226	0xbe2381ec	-0.1596753
227	0x3c33901a	0.010959649
228	0x3c1d03a8	0.009583391
229	0xbe354f57	-0.17706047
230	0x3d87d3f4	0.06632224
231	0x3da4669f	0.08027386
232	0x3c20a2eb	0.009804468
233	0x3cf753c2	0.030191306
234	0xbcb84fc0	-0.022498965
235	0xbd0cc2be	-0.034365408
236	0x3c92ed68	0.01793547
237	0xbc0b1517	-0.008488915
238	0xbdfdd5a5	-0.12394265
239	0x3c950acc	0.018193625
240	0x3d8fb716	0.07017343
241	0x3cfdc39a	0.03097706
242	0x3c7bb3d3	0.015362698
243	0x3df11c0e	0.11772929
244	0x3d0f5254	0.034990624
245	0x3da37671	0.07981575
246	0xbac71571	-0.0015188885
247	0xbc2f39d6	-0.0106949415
248	0x3c33a88d	0.010965479
249	0xbbd4d6a6	-0.0064953147
250	0x3bdf757a	0.006819424
251	0xbc1bb8c9	-0.009504505
252	0xbdafe4bf	-0.08588552
253	0x3c22d134	0.009937573
254	0x3be7eef0	0.007078044
255	0x3bb3445a	0.0054707946

context_transformer_0/ffn_layer_0/intermediate_dense/einsum/Einsum;context_transformer_0/ffn_layer_0/intermediate_dense/Relu;context_transformer_0/ffn_layer_0/intermediate_dense/add f4 [32]
0	0xbeb048fc	-0.34430683
1	0xbef38275	-0.47560468
2	0xbee4616d	-0.4460558
3	0xbec497e3	-0.3839713
4	0xbe94402d	-0.28955212
5	0xbea66f90	-0.3250699
6	0xbedc7560	-0.430583
7	0xbed3041c	-0.41214073
8	0xbe17b8ad	-0.14816542
9	0xbebca7b9	-0.36846712
10	0xbed1d500	-0.4098282
11	0xbf09a029	-0.5376001
12	0xbd2a08be	-0.041512243
13	0xbd51dfe6	-0.051238917
14	0xbec7afb5	-0.3900124
15	0xbebeb155	-0.3724467
16	0xbeb206e6	-0.34770888
17	0xbe9bcb82	-0.30428702
18	0xbe531aa6	-0.20615634
19	0xbe971572	-0.2950855
20	0xbd87d6ea	-0.066327885
21	0xbeaebc85	-0.34128204
22	0xbc4d3c37	-0.012526563
23	0xbee55990	-0.44794893
24	0xbeac3dfd	-0.33641043
25	0xbe93c14a	-0.28858405
26	0xbea3e990	-0.32014132
27	0xbdcd80a2	-0.100343004
28	0xbee1d063	-0.441043
29	0xbea14583	-0.31498346
30	0xbe59a099	-0.2125267
31	0xbeb8b7ec	-0.3607782

context_transformer_0/attention/norm/mul;context_transformer_0/attention/norm/add;context_transformer_0/ffn_layer_0/intermediate_dense/einsum/Einsum;context_transformer_0/ffn_layer_0/intermediate_dense/Relu;context_transformer_0/ffn_layer_0/intermediate_dense/add f4 [32, 32]
0	0xbe5be468	-0.21473849
1	0x3d581daf	0.052762683
2	0x3e21e491	0.15809847
3	0xbe866626	-0.26249808
4	0x3ea4870d	0.32134286
5	0x3de266d2	0.11054768
6	0xbe808b5e	-0.2510633
7	0xbd708b16	-0.058726393
8	0x3e0d292d	0.13785239
9	0xbe01ccc8	-0.12675774
10	0x3ece5319	0.40297773
11	0x3de3ad24	0.11117008
12	0x3d7e3efd	0.06207179
13	0xbe5d23e3	-0.21595721
14	0x3e2fc98f	0.17166732
15	0xbc972e52	-0.018454704
16	0xbde37132	-0.11105575
17	0xbe2a8c74	-0.16655141
18	0xbdf63357	-0.12021511
19	0xbe129ff2	-0.14318827
20	0x3cddf4d5	0.027094284
21	0x3d363e37	0.044492926
22	0xbe6e4973	-0.23270206
23	0xbeb36776	-0.35039872
24	0xbe3c66b8	-0.18398559
25	0x3d2c8c44	0.042125955
26	0xbe096387	-0.13416873
27	0x3e06751f	0.13130616
28	0xbe260d25	-0.16215952
29	0x3eb88b44	0.3604375
30	0xbc95af44	-0.01827205
31	0x3cca3ec5	0.024688134
32	0xbe0e832b	-0.13917224
33	0xbe72be9b	-0.23705523
34	0xbe141167	-0.14459763
35	0x3c5f90e4	0.013645384
36	0x3e839975	0.25703016
37	0x3e40b59e	0.18819281
38	0xbe7d5704	-0.24740225
39	0xbdf62671	-0.12019051
40	0x3dc504d9	0.09620065
41	0xbb1d060f	-0.002395991
42	0xbeb8a894	-0.36066115
43	0x3e251c17	0.16123997
44	0x3b1461a5	0.0022641208
45	0x3e7ae389	0.2450086
46	0xbd58319d	-0.05278169
47	0xbbd9be3d	-0.0066449926
48	0xbddd18c4	-0.10795739
49	0xbe414400	-0.18873596
50	0xbe22afcc	-0.15887374
51	0x3e28c865	0.16482694
52	0x3e16d87e	0.14731023
53	0x3ed53fa4	0.41650116
54	0xbe54bcc2	-0.2077513
55	0xbcf0bae5	-0.029385993
56	0xbd92ff9e	-0.07177661
57	0x3c9646c6	0.018344294
58	0xbc7db463	-0.015484902
59	0x3d0d0cb5	0.034435946
60	0xbc3c7408	-0.011502273
61	0x3e1271fd	0.14301296
62	0xbd39c77b	-0.045356255
63	0xbeb42feb	-0.35192809
64	0xbd5a85f7	-0.053350415
65	0xbd0b8d36	-0.034070216
66	0xbc4e7c68	-0.012602903
67	0xbd25a983	-0.040444862
68	0x3c9b9f8d	0.018996978
69	0x3dea1142	0.11429073
70	0xbe2296e6	-0.15877876
71	0x3d23f076	0.040024243
72	0x3e2ae1f1	0.16687752
73	0xbea9af71	-0.33141664
74	0xbe2115a4	-0.15730911
75	0x3d2362c0	0.039889097
76	0xbe7b07b9	-0.24514665
77	0x3e31cf63	0.17364268
78	0x3d600168	0.05468884
79	0xbd4f3812	-0.050590582
80	0xbca0628f	-0.019578246
81	0x3d0a990d	0.033837367
82	0x3dbb2e45	0.091396846
83	0x3e281470	0.16414046
84	0x3d9245ca	0.071422175
85	0x3e8c7aaf	0.2743735
86	0xbd71c385	-0.059024353
87	0xbd08060d	-0.033208895
88	0xbe564f00	-0.20928574
89	0xbd5d1500	-0.053975105
90	0x3e000b6b	0.12504356
91	0x3dd59ade	0.10429929
92	0x3d0ea959	0.03482947
93	0xbad24545	-0.0016042372
94	0xbe4642c7	-0.19361411
95	0xbe3b7333	-0.18305664
96	0xbe3040bb	-0.17212193
97	0xbe42a9c3	-0.19010071
98	0xbc2777db	-0.010221447
99	0x3e06f633	0.13179855
100	0xbe0a4f18	-0.13506734
101	0x3dc685cf	0.09693491
102	0xbe4cc613	-0.19997434
103	0xbe22f3a6	-0.15913257
104	0x3ddf0120	0.108888865
105	0xbdb2a666	-0.08723144
106	0x3dc5f6d5	0.0966622
107	0x3b62dd41	0.003461674
108	0xbdf4023b	-0.11914488
109	0x3e04cf23	0.12969641
110	0x3b366d29	0.002783606
111	0xbd8041db	-0.06262561
112	0xbceb7606	-0.028742801
113	0xbd20cfb1	-0.03926057
114	0x3df80a73	0.12111368
115	0xbd28e737	-0.04123613
116	0x3dfdc237	0.12390559
117	0x3e8bf460	0.2733488
118	0xbe7ec0db	-0.24878256
119	0xbe0f8362	-0.14014962
120	0xbe1d7cee	-0.15379688
121	0x3e4900fb	0.1962928
122	0xbdf86ee5	-0.121305265
123	0x3c41c70e	0.0118272435
124	0x3c8dc024	0.017303534
125	0x3d9650e0	0.073396444
126	0x3db87e41	0.09008456
127	0xbe588ed4	-0.21148235
128	0xbe88d69f	-0.26726243
129	0x3e364dba	0.17803088
130	0xbdd8eca7	-0.10592013
131	0x3ccd3687	0.025050415
132	0xbd504ef8	-0.05085656
133	0x3e3caf7a	0.18426314
134	0xbd88fd69	-0.06688959
135	0xbea53c6f	-0.3227267
136	0x3ce7d392	0.028299127
137	0xbe45f390	-0.19331193
138	0xbdb4e9d8	-0.08833665
139	0x3e4e2e8f	0.20134948
140	0xbe6e23ec	-0.2325589
141	0x3e824736	0.25444955
142	0xbe2054aa	-0.15657297
143	0x3dd608e3	0.10450914
144	0xbe1d733d	-0.15375991
145	0xbe8ca04f	-0.27466056
146	0x3b7fc438	0.0039026868
147	0xbdfc97a5	-0.123336114
148	0xbe2379df	-0.15964459
149	0x3eaea9c1	0.34113887
150	0xbe6078a9	-0.21921028
151	0xbde8413d	-0.11340568
152	0xbc3f9fb9	-0.011695796
153	0xbeaaf76f	-0.33391902
154	0xbc99d953	-0.018780386
155	0x3e6f91a9	0.23395409
156	0xbec1c8c1	-0.37848476
157	0x3cab63f2	0.020921681
158	0x3d652537	0.055943694
159	0x3d0cea16	0.03440293
160	0x3d0ee4d6	0.034886204
161	0xbd533100	-0.051560402
162	0x3ea0d223	0.31410322
163	0xbd7a9020	-0.061172605
164	0xbc679928	-0.014135636
165	0xbd7051b9	-0.058671687
166	0x3d0c78f9	0.034295056
167	0x3d94296d	0.07234464
168	0x3e50b955	0.20383199
169	0xbd863ff0	-0.06555164
170	0xbe525828	-0.20541441
171	0x3e069305	0.13142021
172	0x3d71e121	0.05905259
173	0xbe9c31d0	-0.30506754
174	0xbdccd1c9	-0.10000951
175	0xbe33e8f5	-0.17569335
176	0x3e40b432	0.18818739
177	0x3ce1e189	0.027573364
178	0x3dcc6696	0.09980504
179	0x3e1f015b	0.15527861
180	0x3dfa2a4c	0.12215099
181	0x3c97e05c	0.0185396
182	0xbcf1a598	-0.029497907
183	0xbe73d180	-0.23810387
184	0x3e09d629	0.13460602
185	0xba438b39	-0.00074594055
186	0xbe897e98	-0.26854396
187	0x3e67effd	0.22650142
188	0xbea1e828	-0.31622434
189	0x3daed802	0.08537294
190	0x3eb74376	0.35793656
191	0x3df96caa	0.12178929
192	0xbe39c9b8	-0.18143356
193	0x3e451f5c	0.19250244
194	0xbe1d1034	-0.15338212
195	0xbe184443	-0.1486979
196	0xbd8d36bb	-0.06895205
197	0x3ced1f51	0.028945597
198	0xbdb2ef32	-0.08737029
199	0xbe8fe149	-0.28101566
200	0x3ca35929	0.019939976
201	0xbea258a7	-0.3170826
202	0xbbe6b1f2	-0.0070402557
203	0x3b894000	0.0041885376
204	0xbe234b1d	-0.15946622
205	0x3e36b841	0.17843725
206	0x3eb4f2bf	0.3534145
207	0xbcc9ef65	-0.024650285
208	0xbc2d863e	-0.010591088
209	0xbd7ea91a	-0.062172987
210	0x3c913436	0.017725091
211	0x3d929785	0.07157806
212	0xbdf78dfa	-0.12087627
213	0x3e77122c	0.24128026
214	0x3e009452	0.1255658
215	0xbd4cf17e	-0.050034992
216	0xbcf07b61	-0.029355707
217	0xbdcc643f	-0.09980058
218	0x3e40e396	0.18836817
219	0xbc93ca15	-0.018040696
220	0xbd871b9c	-0.06597063
221	0x3def9d4e	0.11699925
222	0xbca8252e	-0.020525541
223	0xbda43dff	-0.08019637
224	0xbe6333a5	-0.2218767
225	0xbe386cae	-0.18010208
226	0x3e20b251	0.15693022
227	0xbd701d1b	-0.058621507
228	0x3eb1ba24	0.34712327
229	0x3db791ee	0.08963381
230	0x3d53b625	0.05168738
231	0xbd27b44d	-0.040943433
232	0x3dec2a4f	0.11531507
233	0xbdcde6ff	-0.10053825
234	0x3cf2fdfb	0.029662123
235	0x3e2e5e83	0.17028241
236	0x3dfc4a90	0.12318909
237	0xbd9c4ac4	-0.07631448
238	0xbd76ea8c	-0.060282275
239	0x3d89551b	0.06705686
240	0xbc8d1bed	-0.01722523
241	0xbec90ac1	-0.39266017
242	0xbd2d3587	-0.042287376
243	0xbcdde887	-0.027088417
244	0x3e9bea42	0.30452162
245	0x3e078432	0.13234022
246	0xbd59d6ec	-0.05318348
247	0xbe5f7870	-0.21823287
248	0xbe03895c	-0.12845367
249	0xbdb99fac	-0.09063658
250	0xbe8d14c2	-0.275549
251	0x3de925ee	0.11384188
252	0xbce23f24	-0.027617998
253	0x3e5a04f8	0.21290958
254	0x3e3ac8cf	0.18240665
255	0xbd1cacdf	-0.0382508

context_transformer_0/ffn_layer_1/intermediate_dense/einsum/Einsum;context_transformer_0/ffn_layer_1/intermediate_dense/Relu;context_transformer_0/ffn_layer_1/intermediate_dense/add f4 [32]
0	0xbd1cfc6a	-0.03832666
1	0xbe3f7d19	-0.18700065
2	0xbf28f591	-0.65999705
3	0xbd008545	-0.031377096
4	0xbdaa4f68	-0.08315927
5	0x3e1a3ae0	0.15061522
6	0x3def8f03	0.11697199
7	0xbe9f0407	-0.3105776
8	0xbe208cdc	-0.15678734
9	0xbd91f25c	-0.071263045
10	0xbf26f8aa	-0.6522318
11	0x3e882aa0	0.2659502
12	0x3bc6e859	0.0060701785
13	0x3c38519d	0.011249927
14	0xbe42160c	-0.18953723
15	0x3d9ca80d	0.07649241
16	0xbe34a8d0	-0.17642522
17	0xbe7dc409	-0.24781813
18	0xbe345181	-0.17609216
19	0x3d428e9e	0.04749929
20	0xbe1f58e3	-0.15561251
21	0x3e5f335f	0.2179694
22	0xbdcf5355	-0.10123316
23	0x3d50f008	0.05101016
24	0xbd8a8769	-0.06764109
25	0xbcc33a88	-0.02383162
26	0xbda2cbc5	-0.07949022
27	0x3bf0d5af	0.007349692
28	0xbd89c716	-0.06727426
29	0x3d2fec40	0.042949915
30	0x3e4ad197	0.19806515
31	0xbc619a7f	-0.013769745

context_transformer_0/ffn_layer_0/norm/mul;context_transformer_0/ffn_layer_0/norm/add;context_transformer_0/ffn_layer_1/intermediate_dense/einsum/Einsum;context_transformer_0/ffn_layer_1/intermediate_dense/Relu;context_transformer_0/ffn_layer_1/intermediate_dense/add f4 [32, 32]
0	0xbe485ee1	-0.19567443
1	0x3d81526f	0.06314551
2	0xbd7d97c0	-0.0619123
3	0xbdd27967	-0.10277062
4	0x3e858b45	0.26082817
5	0x3e64cddb	0.22344153
6	0xbde27d62	-0.11059071
7	0x3c85908e	0.01630428
8	0xbcdc5b22	-0.026898924
9	0xbd9af9bc	-0.07567164
10	0xbecbb1e0	-0.39784145
11	0x3e5f0dba	0.2178258
12	0xbd66d076	-0.056351148
13	0x3cbfc106	0.02340747
14	0x3e083d21	0.13304569
15	0xbd384d46	-0.04499557
16	0xbea2f4e1	-0.31827453
17	0x3c4a8084	0.012359742
18	0xbe2955a2	-0.16536573
19	0x3dac501d	0.08413718
20	0x3cab12ee	0.02088305
21	0x3ef71114	0.48255217
22	0x3c8b7f4a	0.01702847
23	0x3c623691	0.013806955
24	0xbde650e5	-0.11245898
25	0x3e2f8a42	0.17142585
26	0xbce1003d	-0.027465934
27	0xbc84fb31	-0.016233059
28	0x3e29baae	0.16575119
29	0x3d8f1459	0.06986303
30	0xbda99e4a	-0.08282144
31	0x3d23ed99	0.040021513
32	0xbcc25b06	-0.023725044
33	0x3d194386	0.03741791
34	0x3c7efedf	0.015563696
35	0xbd30bad7	-0.043146934
36	0x3d5be498	0.0536848
37	0x3b09efcf	0.0021047478
38	0x395c8198	0.00021029112
39	0x3c537c10	0.012907997
40	0x3d4eb5d1	0.050466362
41	0xbcf15c04	-0.029462822
42	0xbca57b6e	-0.020200457
43	0x3d39bc8d	0.04534583
44	0x3c498a08	0.012300976
45	0x3d01b572	0.03166718
46	0xbc1a8814	-0.009431858
47	0x3cc9cd75	0.024634102
48	0xba4d5240	-0.00078323856
49	0x3d151674	0.036398366
50	0x3c7f13d9	0.015568697
51	0x3d429289	0.047503028
52	0x3ccd056b	0.025026998
53	0x3cbe72bc	0.023248069
54	0xbb74ceb0	-0.003735464
55	0xbd063364	-0.032763854
56	0x3c6efe71	0.014587031
57	0x3d04497e	0.03229665
58	0xbd4793a6	-0.048724793
59	0xbc30d3c8	-0.01079268
60	0x3cf362cc	0.029710196
61	0x3cd82f18	0.026389644
62	0x3c4fadb8	0.012675695
63	0xbc760e27	-0.015018023
64	0xbd6ab0cc	-0.057297513
65	0x3d9d40a3	0.07678344
66	0x3e3af90f	0.18259071
67	0xbe3fad4c	-0.18718451
68	0x3d91b958	0.0711543
69	0xbda31ece	-0.0796486
70	0xbe2f1df6	-0.17101273
71	0xbd50d266	-0.0509819
72	0x3d4fd7ee	0.050743036
73	0x3dc29339	0.09500737
74	0x3cc097c7	0.023509873
75	0x3d5a5b75	0.053309876
76	0xbdd4c3d2	-0.10388912
77	0xbe7498a3	-0.23886351
78	0x3e6646bf	0.22487925
79	0xbde1b95a	-0.11021681
80	0x3d9f8ce1	0.077905424
81	0xbe698bf4	-0.22807294
82	0xbd502a30	-0.050821483
83	0x3e49083d	0.19632049
84	0x3e574629	0.21022858
85	0x3addd7f2	0.0016925319
86	0x3e60c039	0.21948327
87	0xbdcba2bf	-0.09943151
88	0x3d871cae	0.06597267
89	0x3dae61ee	0.08514772
90	0xba6becdf	-0.0008999835
91	0x3e12e388	0.14344609
92	0xbda0b920	-0.0784781
93	0x3e00eca1	0.12590267
94	0xbcb84918	-0.022495791
95	0xbddebbcb	-0.108756624
96	0xbda97d58	-0.082758605
97	0x3d9528f1	0.072831996
98	0x3dd31db9	0.103084035
99	0xbdfcfceb	-0.12352928
100	0x3ddc0144	0.10742429
101	0x3e800c51	0.25009397
102	0xbe62605a	-0.22107068
103	0x3e0328fc	0.12808603
104	0x3e08cde3	0.1335979
105	0xbd4da61e	-0.05020725
106	0xbe72ade0	-0.2369914
107	0x3e83674e	0.25664753
108	0xbe02c343	-0.12769799
109	0xbdcac71e	-0.0990126
110	0x3e141514	0.14461166
111	0xbe9150fd	-0.28382102
112	0x3d16a25e	0.03677594
113	0x3da1cb9f	0.07900166
114	0xbdaba630	-0.08381307
115	0x3e3f42dc	0.18677849
116	0xbce70ac5	-0.028203378
117	0x3ef81194	0.4845091
118	0xbca85e8c	-0.020552896
119	0x3c0c6667	0.0085693365
120	0xbe4fddd1	-0.2029946
121	0x3e882b2c	0.26595438
122	0x3d1450f3	0.03621001
123	0xbd52a56a	-0.051427282
124	0x3ce84944	0.028355248
125	0x3e302f07	0.1720544
126	0xbc9c7a9e	-0.019101437
127	0x3dfa3760	0.12217593
128	0xbc9a4302	-0.01883078
129	0x3dc765af	0.097361915
130	0xbd038259	-0.03210673
131	0xbd157437	-0.036487784
132	0x3bb66f24	0.005567448
133	0xbab7d6e0	-0.001402583
134	0xbd4978bd	-0.04918741
135	0x3d6282ea	0.05530063
136	0xbce9b810	-0.02853015
137	0xbdb255e4	-0.087077886
138	0xbc23e634	-0.010003615
139	0xbcbb0445	-0.022829184
140	0xbd8a52b4	-0.067540556
141	0x3cd7e536	0.026354413
142	0xbd3b35de	-0.04570567
143	0x3c7c0cc8	0.015383907
144	0x3d1599b9	0.036523554
145	0x3cdffaad	0.027341211
146	0x3d1f79f8	0.038934678
147	0x3bc9b667	0.0061557773
148	0x3cebd363	0.02878732
149	0x3d3e8953	0.04651768
150	0x3c7eeda3	0.015559587
151	0xbd56b5a7	-0.05241933
152	0xbd5ec884	-0.054390445
153	0x3d299dc8	0.041410238
154	0x3d4438b9	0.047905657
155	0x3bb2a7ed	0.005452147
156	0x3d1ff74b	0.039054196
157	0x3d7f2a80	0.06229639
158	0x3bc4f983	0.0060111894
159	0xbd7699b7	-0.060205188
160	0xbe7db54c	-0.2477619
161	0x3dbbc686	0.09168725
162	0xbe4802d4	-0.19532329
163	0x3dacc0c6	0.08435206
164	0x3e0b33c5	0.13593967
165	0x3e8b02f6	0.27150697
166	0x3d1ee3bb	0.0387914
167	0xbdb6e0f8	-0.08929628
168	0x3e2bccc9	0.16777338
169	0xbdff2961	-0.12459064
170	0x3e883909	0.26606014
171	0x3d009e9e	0.03140127
172	0x3d138d43	0.03602339
173	0xbde4977f	-0.11161708
174	0x3e99adb5	0.3001534
175	0x3e314578	0.17311656
176	0xbe37b8fa	-0.17941657
177	0xbcba5fee	-0.022750821
178	0xbe1c05b8	-0.15236557
179	0x3ce1159a	0.02747612
180	0xbd110b8c	-0.035411403
181	0x3f0088a9	0.50208527
182	0xbd9fbf17	-0.07800119
183	0x3d3dfa7e	0.046381466
184	0xbe539015	-0.20660432
185	0xbd6086d7	-0.054816093
186	0xbdbda371	-0.092596896
187	0x3ac2ce48	0.0014862502
188	0x3d40817e	0.046998493
189	0xbdea14f3	-0.11429777
190	0x3e3510d5	0.17682202
191	0xbdd75f01	-0.105161674
192	0xbe0795e0	-0.13240767
193	0xbd8c74a3	-0.06858184
194	0xbc9714b4	-0.01844249
195	0x3deeff94	0.116698414
196	0x3e7ddfdb	0.24792425
197	0x3e7287f2	0.23684672
198	0xbdaea237	-0.08527034
199	0x3c2c6dd4	0.010524232
200	0x3e6f5fc0	0.2337637
201	0x3cb11c28	0.021619871
202	0xbe19cdda	-0.15019932
203	0x3e3eb77c	0.18624681
204	0xbdd81f37	-0.10552829
205	0xbd04db25	-0.032435555
206	0x3e77a33e	0.24183366
207	0xbddeca54	-0.10878435
208	0xbe1b2737	-0.15151678
209	0x3e1b829b	0.15186541
210	0xbd99c88b	-0.07508954
211	0x3e9cec34	0.3064896
212	0xbbb2f645	-0.0054614865
213	0x3eda50fe	0.42639917
214	0x3cabba65	0.020962903
215	0x3d52a76c	0.051429197
216	0xbd9dffa1	-0.07714773
217	0x3dd86b30	0.105673194
218	0xbd0d4496	-0.034489237
219	0xbdfc2871	-0.12312401
220	0xba79837f	-0.00095181906
221	0xbc00b70c	-0.007856142
222	0x3d3fe7af	0.04685181
223	0x3ce41f97	0.027847094
224	0xbea2b7ef	-0.31780955
225	0x3d5d954f	0.05409747
226	0x3e0b46b7	0.13601194
227	0xbe35ba39	-0.1774682
228	0xbd2a1ba3	-0.041530263
229	0xbd5cdd4d	-0.053921986
230	0x3d85bd86	0.06530289
231	0xbe61d4f7	-0.22053896
232	0x3d7938af	0.060845073
233	0xbe0e798e	-0.13913557
234	0xbec16c19	-0.37777784
235	0x3e12b414	0.14326507
236	0x3dc67c1e	0.09691642
237	0xbe2f7ffc	-0.17138666
238	0x3dfc7a8d	0.12328062
239	0x3d09862f	0.033575233
240	0x3d841e9c	0.06451151
241	0xbe85fcb7	-0.2616937
242	0xbe119e87	-0.1422063
243	0x3d5bea6f	0.05369037
244	0xbcfa26f2	-0.030536149
245	0x3d281df3	0.041044187
246	0xbe2e7810	-0.17037988
247	0xbd3141de	-0.043275706
248	0xbd8ecc1a	-0.06972523
249	0x3d876e11	0.066127904
250	0xbda8629d	-0.08221934
251	0x3e447a85	0.19187362
252	0x3d8706a4	0.065930635
253	0x3e1120cf	0.14172672
254	0x3ea69e6f	0.3254275
255	0x3e127b74	0.14304906

context_transformer_0/ffn_layer_2/intermediate_dense/einsum/Einsum;context_transformer_0/ffn_layer_2/intermediate_dense/Relu;context_transformer_0/ffn_layer_2/intermediate_dense/add f4 [32]
0	0xbe892b94	-0.2679106
1	0xbe8fc946	-0.28083247
2	0x3dfd1e14	0.123592526
3	0xbde132e0	-0.10996032
4	0x3d050ff3	0.032485913
5	0xbce116f7	-0.02747677
6	0xbce1e4bf	-0.027574895
7	0xbd1191bc	-0.035539374
8	0xbd2d677d	-0.042335022
9	0xbbc8bacc	-0.0061257835
10	0xbdf999ca	-0.12187536
11	0xbc3ff199	-0.011715316
12	0xbe253608	-0.16133893
13	0x3dcb6266	0.099308774
14	0xbe4a7574	-0.19771367
15	0xbe121eab	-0.14269511
16	0xbe90e2be	-0.2829799
17	0xbe01589e	-0.12631461
18	0xbdccf239	-0.10007138
19	0xbe89f802	-0.26947027
20	0xbd67e4a1	-0.056614522
21	0x3cdcca47	0.026951922
22	0xbec0fd29	-0.37693146
23	0xbd4fb78a	-0.050712146
24	0xbe1dbb22	-0.15403417
25	0x3d6a7100	0.05723667
26	0x3e663d75	0.22484381
27	0xbe67d9b9	-0.22641648
28	0xbec1bb3a	-0.37838155
29	0x3d613742	0.05498434
30	0xbdc3ef89	-0.09567172
31	0xbed24404	-0.41067517

context_transformer_0/ffn_layer_1/norm/mul;context_transformer_0/ffn_layer_1/norm/add;context_transformer_0/ffn_layer_2/intermediate_dense/einsum/Einsum;context_transformer_0/ffn_layer_2/intermediate_dense/Relu;context_transformer_0/ffn_layer_2/intermediate_dense/add f4 [32, 32]
0	0x3e1ab31d	0.15107389
1	0x3e392bf4	0.18083173
2	0x3c8035d8	0.015650675
3	0xbe4e3e15	-0.2014087
4	0xbd801e5a	-0.06255789
5	0x3d708b16	0.058726393
6	0x3e37b211	0.1793902
7	0xbe26728c	-0.16254634
8	0xbcaa7195	-0.020806113
9	0xbe52b8fc	-0.20578378
10	0x3d04569c	0.03230916
11	0x3cf7c260	0.030244052
12	0x3d049740	0.032370806
13	0x3ce242ff	0.027619837
14	0x3eae5023	0.34045514
15	0x3d92957d	0.07157419
16	0x3e3c250f	0.18373512
17	0x3d051c99	0.032497976
18	0x3de99500	0.114053726
19	0x3e26c42a	0.16285768
20	0xbe7a6ae0	-0.24454832
21	0x3e6638b7	0.22482572
22	0xbcbf7857	-0.023372812
23	0x3d85c2e6	0.065313146
24	0x3e8e6222	0.27809244
25	0xbc9b04bd	-0.018923158
26	0x3d8f9ee8	0.07012731
27	0xbcca6596	-0.024706643
28	0x3d20b9e3	0.039239775
29	0xbd736486	-0.05942204
30	0x3e1b6f72	0.15179232
31	0x3e9272ac	0.28603113
32	0xbe0bf0ae	-0.13666031
33	0x3e542459	0.2071699
34	0xbe946d33	-0.28989562
35	0xbdda8931	-0.106706984
36	0x3e73ce9f	0.23809288
37	0xbcf470b5	-0.0298389
38	0x3e5593ee	0.20857212
39	0x3c137479	0.008999937
40	0xbce7e1c2	-0.028305892
41	0xbe2ccbf9	-0.16874684
42	0x3e8a2d24	0.26987565
43	0xbe2025b9	-0.1563939
44	0x3d51ad1a	0.051190473
45	0x3e66775c	0.2250647
46	0x3e34e1c1	0.17664243
47	0x3d625490	0.055256426
48	0xbe653db8	-0.22386825
49	0xbe86bc42	-0.26315504
50	0xbd056d4d	-0.03257494
51	0x3e95bbb7	0.29244778
52	0x3ddcc2d6	0.107793495
53	0x3db22754	0.086989075
54	0x3d5235da	0.051320888
55	0xbeb3e1fd	-0.35133353
56	0xbd6cfd35	-0.057858665
57	0xbea16478	-0.31521964
58	0x3d946b1e	0.072469935
59	0xbd2c66ca	-0.042090215
60	0x3d476ea9	0.048689518
61	0xbdc5dd49	-0.096613474
62	0xbd095a3e	-0.033533327
63	0x3d30cc4f	0.043163594
64	0xbd596f1d	-0.05308448
65	0x3e4404b0	0.19142413
66	0xbe376866	-0.17910919
67	0xbe6abcc9	-0.22923578
68	0x3ddbd27a	0.107335046
69	0x3e830b3a	0.25594503
70	0x3d5d7787	0.05406907
71	0xbd921d05	-0.07134441
72	0xbe80e7a8	-0.2517674
73	0xbe8e47af	-0.27789065
74	0x3c6e4267	0.014542199
75	0x3e1fb16e	0.15595028
76	0xbdf86211	-0.1212808
77	0x3d25a680	0.04044199
78	0x3eb6ac27	0.35678217
79	0xbe538651	-0.20656706
80	0xbc582e31	-0.013194607
81	0x3e25c0fb	0.16186897
82	0x3cdd552a	0.027018148
83	0x3ea8e65c	0.3298825
84	0xbe801cd7	-0.25022003
85	0x3e2c01ea	0.16797605
86	0x3dffb97e	0.12486552
87	0x3e65fd8b	0.2246
88	0x3ec56681	0.38554767
89	0x3d09ac0f	0.033611353
90	0xbd587e50	-0.052854836
91	0xbe0fc05c	-0.14038223
92	0x3c7ea903	0.015543225
93	0x3c1df35d	0.009640542
94	0xbd31ec77	-0.0434384
95	0x3e697f93	0.22802572
96	0x3ccd44a2	0.02505714
97	0x3c60dfa3	0.013725194
98	0xbc35f9f1	-0.011106954
99	0xbd03c2f4	-0.032168344
100	0x3dc9401f	0.09826683
101	0x3d615737	0.055014815
102	0xbcfa3e2f	-0.03054723
103	0xbc75814f	-0.014984443
104	0xbdc2ea96	-0.095174
105	0xbd8c054e	-0.06836949
106	0xbc110e33	-0.008853483
107	0x3d199a55	0.037500698
108	0xbd741bd4	-0.05959685
109	0x3c91dd8e	0.01780584
110	0xbc7e6582	-0.015527131
111	0xbae4e24a	-0.0017462459
112	0xbcfee2e1	-0.031114044
113	0xbc99aac4	-0.018758185
114	0xbd3f9391	-0.04677159
115	0x3db59ff5	0.088684
116	0x3cd4008d	0.025879169
117	0x3d996bbd	0.074912526
118	0xbceffed3	-0.029296314
119	0xbd14a219	-0.0362874
120	0x3d59c07a	0.053162076
121	0x3b80b1d0	0.003927447
122	0x3b90d0e0	0.004419431
123	0x3d30c627	0.043157723
124	0x3d815eca	0.06316908
125	0x3ccfd85c	0.025371723
126	0x3d0ce6d3	0.03439982
127	0x3c10bf95	0.008834739
128	0xbc125a7a	-0.008932704
129	0x3e34ff43	0.176755
130	0xbc0241c2	-0.007950248
131	0xbe274cb3	-0.16337852
132	0x3d91167b	0.07084366
133	0x3d8290b5	0.06375257
134	0x3de80b21	0.11330248
135	0xbdbf864e	-0.093517885
136	0x3e8233e0	0.25430202
137	0xbda42bfe	-0.08016203
138	0xbe33e61e	-0.17568251
139	0x3e6b840f	0.22999595
140	0x3e842cfd	0.25815573
141	0xbd5800f0	-0.05273527
142	0xbe889047	-0.26672575
143	0xbd589ff5	-0.052886922
144	0x3e884e22	0.2662211
145	0xbdd34a86	-0.103169486
146	0x3e60e2d6	0.21961531
147	0xbd5fa0a5	-0.054596562
148	0xbd7862db	-0.06064115
149	0x3d982ce8	0.0743044
150	0xbef3719c	-0.47547615
151	0xbd8aface	-0.067861184
152	0x3e510f0a	0.20415893
153	0xbe73aedb	-0.23797171
154	0xbe0d7397	-0.13813625
155	0x3d9107c7	0.070815615
156	0xbe14f205	-0.14545448
157	0x3e4cb08d	0.19989224
158	0xbe0649cb	-0.13114087
159	0x3d286fb7	0.041122165
160	0x3d329a4b	0.043604176
161	0x3e4c25a9	0.19936241
162	0xbe46d178	-0.19415843
163	0x3d2cda5e	0.04220044
164	0x3e1481dc	0.14502662
165	0x3dfb8101	0.12280465
166	0x3e105485	0.14094742
167	0x3e162c35	0.14665301
168	0xbda7b639	-0.08189053
169	0xbe52ea22	-0.20597127
170	0xbdf0c35d	-0.117560126
171	0x3d8dd022	0.06924464
172	0x3d87edca	0.066371515
173	0x3d07a890	0.033119738
174	0x3bf9221b	0.0076029426
175	0xbd868f24	-0.06570271
176	0x3dc9874b	0.09840258
177	0x3d66d718	0.056357473
178	0x3e28459e	0.16432807
179	0x3db0fd34	0.08642045
180	0x3d7c55a5	0.061605114
181	0x3e41e6d4	0.1893571
182	0x3e3f1d16	0.18663439
183	0xbca6fa7f	-0.020383118
184	0xbcdd95d4	-0.027048983
185	0xbdfd9d1c	-0.12383482
186	0xbd1c46ea	-0.038153566
187	0xbe123d1b	-0.14281122
188	0x3e9abcf8	0.30222297
189	0xbcde5bd4	-0.027143396
190	0xbbeec155	-0.0072862306
191	0x3cac0636	0.020999055
192	0x3e2e6eb6	0.1703442
193	0xbc905df3	-0.017622923
194	0x3de6c39f	0.112677805
195	0x3e01c43d	0.12672515
196	0x3e87eefb	0.26549515
197	0x3d7b92ae	0.06141918
198	0xbe62d772	-0.22152498
199	0x3d47d4aa	0.048786797
200	0x3bd6e587	0.0065581235
201	0xbe0dd519	-0.13850822
202	0x3d4437ec	0.047904894
203	0xbe52e50f	-0.20595191
204	0xbdae320a	-0.08505638
205	0xbe270fa8	-0.16314566
206	0x3dbcb418	0.09214038
207	0xbe29e64e	-0.1659176
208	0xbba9e980	-0.005185306
209	0x3dc98a06	0.09840779
210	0xbd9e811c	-0.077394694
211	0x3dbcad7e	0.092127785
212	0xbe1bd605	-0.1521836
213	0x3d404537	0.04694101
214	0xbe35cccb	-0.17753904
215	0x3e6306f0	0.22170615
216	0xbe9c8a64	-0.30574334
217	0xbd439ed3	-0.04775889
218	0x3d948f2d	0.07253871
219	0x3e9f4fa4	0.31115448
220	0xbc1a2dbe	-0.00941032
221	0xbe1b04d5	-0.15138562
222	0x3e3bb043	0.18328957
223	0x3ea72063	0.32641897
224	0x3ddcdecd	0.107846834
225	0xbe0417dd	-0.12899728
226	0xbdcf6d40	-0.1012826
227	0xbd47f572	-0.04881806
228	0x3e8b5e7d	0.27220526
229	0xbcc8b713	-0.02450136
230	0x3e2136e8	0.15743601
231	0x3e886b4f	0.2664437
232	0xbe272546	-0.16322812
233	0xbce024cf	-0.027361302
234	0xbd957a25	-0.07298688
235	0x3d8d6079	0.06903166
236	0x3ed2caf0	0.41170454
237	0xbdd9b9a5	-0.10631112
238	0xbe594581	-0.2121792
239	0xbe5d0aec	-0.21586198
240	0x3cf517ea	0.02991863
241	0x3d8c679c	0.068556994
242	0x3da2c9fc	0.07948682
243	0x3aeb040c	0.0017930283
244	0x3e507458	0.20356882
245	0xbdb21352	-0.08695091
246	0x3dcc1c0a	0.099662855
247	0x3e121bb3	0.14268379
248	0x3e11bba1	0.14231731
249	0xbe879ea9	-0.26488236
250	0xbde0c661	-0.10975338
251	0xbe108f3b	-0.14117138
252	0xbb0b97d7	-0.002130022
253	0x3d53da01	0.051721577
254	0xbcd9d3d3	-0.026590263
255	0xbe852f9a	-0.2601288

context_transformer_0/ffn_layer_3/intermediate_dense/einsum/Einsum;context_transformer_0/ffn_layer_3/intermediate_dense/Relu;context_transformer_0/ffn_layer_3/intermediate_dense/add f4 [32]
0	0xbe2548bc	-0.16141027
1	0xbdd0cc39	-0.101952024
2	0xbdcd2c04	-0.10018161
3	0xbd7177ab	-0.058952015
4	0x3d9ffff3	0.0781249
5	0xbdc564f2	-0.096383944
6	0xbe7e8de9	-0.24858822
7	0xbd5b2e25	-0.053510804
8	0xbdb2de36	-0.087337896
9	0xbdfaf3af	-0.1225351
10	0xbde01246	-0.109409854
11	0xbda42e25	-0.08016614
12	0xbe9989c3	-0.29987916
13	0xbd1c9bda	-0.03823457
14	0xbed57f84	-0.4169885
15	0xbe6e58c2	-0.23276046
16	0xbdadeb0d	-0.08492098
17	0xbe13c7f0	-0.14431739
18	0xbe2bcd3e	-0.16777512
19	0xbe33a9b0	-0.175452
20	0xbd9c76c8	-0.07639843
21	0xbe18309d	-0.14862294
22	0xbe8c085d	-0.2735013
23	0xbe77fe17	-0.24218021
24	0xbd22ff8b	-0.039794486
25	0xbe938f0a	-0.28820068
26	0xbe67477c	-0.22585863
27	0xbe0d4d84	-0.13799101
28	0x3d7b4b57	0.061351147
29	0xbd3e3150	-0.046433747
30	0x3c73d561	0.014882416
31	0xbba5d5b8	-0.0050608777
